…
255 255 255 ... 255 255 255]]\n\n [[255 255 255 ... 255 255 255]\n  [255 255 255 ... 255 255 255]\n  [255 255 255 ... 255 255 255]\n  ...\n  [255 255 255 ... 255 255 255]\n  [255 255 255 ... 255 255 255]\n  [255 255 255 ... 255 255 255]]], (7, 7, 32), uint8)', 'action_space': 'Discrete(15)', 'n_envs': 1, 'num_timesteps': 0, '_total_timesteps': 5000000.0, '_num_timesteps_at_start': 0, 'eval_env': 'None', 'seed': 'None', 'action_noise': 'None', 'start_time': 1747209464818720600, 'policy': 'ActorCriticCnnPolicy(\n  (features_extractor): MinigridFeaturesExtractor(\n    (cnn): Sequential(\n      (0): Conv2d(7, 32, kernel_size=(2, 2), stride=(1, 1))\n      (1): ReLU()\n      (2): Conv2d(32, 32, kernel_size=(2, 2), stride=(1, 1))\n      (3): ReLU()\n      (4): Conv2d(32, 64, kernel_size=(2, 2), stride=(1, 1))\n      (5): ReLU()\n      (6): Flatten(start_dim=1, end_dim=-1)\n    )\n    (linear): Sequential(\n      (0): Linear(in_features=7424, out_features=128, bias=True)\n      (1): ReLU()\n    )\n  )\n  (mlp_extractor): MlpExtractor(\n    (shared_net): Sequential()\n    (policy_net): Sequential(\n      (0): Linear(in_features=128, out_features=64, bias=True)\n      (1): Tanh()\n      (2): Linear(in_features=64, out_features=64, bias=True)\n      (3): Tanh()\n    )\n    (value_net): Sequential(\n      (0): Linear(in_features=128, out_features=64, bias=True)\n      (1): Tanh()\n      (2): Linear(in_features=64, out_features=64, bias=True)\n      (3): Tanh()\n    )\n  )\n  (action_net): Linear(in_features=64, out_features=15, bias=True)\n  (value_net): Linear(in_features=64, out_features=1, bias=True)\n)', 'learning_rate': 0.0003, 'tensorboard_log': './runs/gv8ob9fe', 'lr_schedule': '<function constant_fn.<locals>.func at 0x00000173B25FE430>', '_last_obs': '[[[[84  0  0 ...  0  0  0]\n   [84  0  0 ...  0  0  0]\n   [84  0  0 ...  0  0  0]\n   ...\n   [84  0  0 ...  0  0  0]\n   [84  0  0 ...  0  0  0]\n   [84  0  0 ...  0  0  0]]\n\n  [[ 1  0  0 ...  0
…
