…
          [255 255 255 ... 255 255 255]
          ...
          [255 255 255 ... 255 255 255]
          [255 255 255 ... 255 255 255]
          [255 255 255 ... 255 255 255]]

         [[255 255 255 ... 255 255 255]
          [255 255 255 ... 255 255 255]
          [255 255 255 ... 255 255 255]
          ...
          [255 255 255 ... 255 255 255]
          [255 255 255 ... 255 255 255]
          [255 255 255 ... 255 255 255]]], (7, 7, 32), uint8)
policy:
    value: |-
        ActorCriticCnnPolicy(
          (features_extractor): MinigridFeaturesExtractor(
            (cnn): Sequential(
              (0): Conv2d(7, 32, kernel_size=(2, 2), stride=(1, 1))
              (1): ReLU()
              (2): Conv2d(32, 32, kernel_size=(2, 2), stride=(1, 1))
              (3): ReLU()
              (4): Conv2d(32, 64, kernel_size=(2, 2), stride=(1, 1))
              (5): ReLU()
              (6): Flatten(start_dim=1, end_dim=-1)
            )
            (linear): Sequential(
              (0): Linear(in_features=7424, out_features=128, bias=True)
              (1): ReLU()
            )
          )
          (mlp_extractor): MlpExtractor(
            (shared_net): Sequential()
            (policy_net): Sequential(
              (0): Linear(in_features=128, out_features=64, bias=True)
              (1): Tanh()
              (2): Linear(in_features=64, out_features=64, bias=True)
              (3): Tanh()
            )
            (value_net): Sequential(
              (0): Linear(in_features=128, out_features=64, bias=True)
              (1): Tanh()
              (2): Linear(in_features=64, out_features=64, bias=True)
              (3): Tanh()
            )
          )
          (action_net): Linear(in_features=64, out_features=15, bias=True)
          (value_net): Linear(in_features=64, out_features=1, bias=True)
        )
policy_class:
    value: <class 'stable_baselines3.common.policies.ActorCriticCnnPolicy'>
policy_kwargs:
    value: '{''features_extractor_class'': <class ''__main__.MinigridFeaturesExtractor''>, ''features_extractor_kwargs'': {''features_dim'': 128}}'
policy_type:
    value: CnnPolicy
rollout_buffer:
    value: <stable_baselines3.common.buffers.RolloutBuffer object at 0x00000173B2917250>
…
